…
ttps://localhost:8080/"},"id":"Dics1keg0sZ6","executionInfo":{"status":"ok","timestamp":1668744747681,"user_tz":-330,"elapsed":24,"user":{"displayName":"Movies watch","userId":"10710777940273909794"}},"outputId":"eed5643f-2b86-45b3-a7a5-6adb05662bb8"},"execution_count":null,"outputs":[{"output_type":"stream","name":"stdout","text":["Model: \"sequential\"\n","_________________________________________________________________\n"," Layer (type)                Output Shape              Param #   \n","=================================================================\n"," conv2d (Conv2D)             (None, 28, 28, 32)        832       \n","                                                                 \n"," conv2d_1 (Conv2D)           (None, 28, 28, 32)        25632     \n","                                                                 \n"," max_pooling2d (MaxPooling2D  (None, 14, 14, 32)       0         \n"," )                                                               \n","                                                                 \n"," dropout (Dropout)           (None, 14, 14, 32)        0         \n","                                                                 \n"," conv2d_2 (Conv2D)           (None, 14, 14, 64)        18496     \n","                                                                 \n"," conv2d_3 (Conv2D)           (None, 14, 14, 64)        36928     \n","                                                                 \n"," max_pooling2d_1 (MaxPooling  (None, 7, 7, 64)         0         \n"," 2D)                                                             \n","                                                                 \n"," dropout_1 (Dropout)         (None, 7, 7, 64)          0         \n","                                                                 \n"," flatten (Flatten)           (None, 3136)              0         \n","                                                                 \n"," dense (Dense)               (None, 128)               401536    \n","                                                                 \n"," dropout_2 (Dropout)         (None, 128)               0         \n","                                                                 \n"," dense_1 (Dense)             (None, 10)                1290      \n","                                                                 \n","=================================================================\n","Total params: 484,714\n","Trainable params: 484,714\n","Non-trainable params: 0\n","_________________________________________________________________\n"]}]},{"cell_type":"code","source":["# ploting the model architecture\n","plot_model(model, 'model
…
